models/model_0.pth (torch, 44943 bytes, 7 tensors)

0.weight f4 [32, 2]
00000000: 8301 83be 8832 d03d 4836 343f 4c83 51bf
00000010: d29f bc3e a4a2 01be 6829 eebe 74ae ffbe
00000020: 0de4 8d3e e4c4 4b3f d12e 21bf 08ad eabe
00000030: f0d4 82bd 8be2 523e c959 2b3f 5beb 48bf
00000040: 127d 033e 1e3a 94bd d37a 9bbe 703b 1a3f
00000050: 8279 3dbf 263e 28bf 1eec 053f b509 0b3f
00000060: 95f2 5ebf 6813 553e 1c5d 4cbe aa76 dd3e
00000070: c8a6 613e e267 ce3e ab1c 3f3f 3ed3 b23e
00000080: a2d5 d0bd 6d81 50bf 92d6 90be dbee 883e
00000090: 09d4 3a3f c6f1 4a3f 2260 25bf e8f4 f63e
000000a0: 8cbc f4bc 576b 12bc cca3 77be 5e8c d43e
000000b0: 6439 ea3e d17c 073f e260 c03e efc5 68bc
000000c0: 97e7 45bf a361 44bf 4120 723e 590c 323e
000000d0: 991e aa3d ac1e 1e3f 9d5f 1ebf ea46 e5bd
000000e0: e8d5 3d3f abe6 22bf cff2 01bf f49e e53e
000000f0: 62e4 17be 3c67 ca3d 54ae 763e a8bf 49be
-0.2558709 0.10165888 0.70395327 -0.8184097 0.36840683 -0.12659699 -0.46515965 -0.49937785
0.2771305 0.79597306 -0.6296206 -0.45835137 -0.06388271 0.20594232 0.66933876 -0.78484124
0.1284068 -0.072376475 -0.30367145 0.60246944 -0.7401353 -0.6571983 0.5231341 0.54311687
-0.870889 0.20808184 -0.19957393 0.43254596 0.22036278 0.4031363 0.7465312 0.3492679
-0.10196997 -0.8144749 -0.28288704 0.26744732 0.7297979 0.79275167 -0.6459981 0.48233724
-0.029875062 -0.008936725 -0.24183577 0.41513342 0.4574691 0.5292483 0.37573916 -0.014207347
-0.77306503 -0.7671148 0.23645116 0.17387523 0.08306617 0.6176555 -0.61864644 -0.111951664
0.7415452 -0.6363322 -0.5076112 0.44847834 -0.14833215 0.09882972 0.24089938 -0.19702017

0.bias f4 [32]
00000000: 2073 98be 553e d4bc 897c 2ebf 9bee b8bd
00000010: 95c3 bb3e 4a93 7e3e ca89 643e 7d74 443f
00000020: 90c3 ab3d d2c2 293f c8c5 aa3e da5c 8e3d
00000030: ef18 233f dce3 1f3f 2ec8 28bf ee9e 513e
00000040: a060 8a3e 1bc6 773b 1479 34bd f398 783b
00000050: b338 df3e 8a1f fdbe e863 103f 5820 573e
00000060: e535 9abd 5286 253f 1ef0 b1bc b168 d3be
00000070: e109 1bbe 68fe 003f 94db 013e 4ef2 30bf
-0.29775333 -0.025908628 -0.68158776 -0.090298854 0.36672655 0.24860874 0.22318187 0.76740247
0.0838691 0.663129 0.3335402 0.06951304 0.6370992 0.6245706 -0.6593045 0.20470783
0.27026844 0.003780729 -0.04406078 0.0037932962 0.43597946 -0.49438125 0.56402445 0.21008432
-0.07529811 0.6465808 -0.021720942 -0.4129081 -0.15140487 0.50388193 0.12681419 -0.6911973

2.weight f4 [64, 32]
00000000: df0d 313e a876 a1be 281c f1bc de5b 003e
00000010: c80e 28bd 6a12 7b3e 5d25 123e f0d7 4f3d
00000020: 7982 3f3d 3c91 5dbd d6a4 783e 2b13 833e
00000030: 96a6 51bd 8b99 17bd 9134 223e 8068 983e
00000040: e9a0 923d b8bd 60be 4bf6 8d3e 3314 7fbe
00000050: 8f3a 923d 5177 c8bd 640b 39bd 8da7 1ebe
00000060: 624a 8a3e 71eb 71bc 989d e03d e2e0 93bd
00000070: b13f fdbd 4fd6 e83d 972c 143e 1e02 d33d
00000080: 2860 f83b 8494 79bd 3f61 0a3e da57 f7bd
00000090: 990d 3e3e d840 99bd ba47 d0bc 1e1c 4d3b
000000a0: 273e 22be dc49 0abe 389a 34be c2cb 633e
000000b0: cb1e ef3d 1571 0f3e 4c36 0bbd b927 c73d
000000c0: fa67 363d e0ac 17bd 6a0a 3c3e d872 50bc
000000d0: d0ad 4b3d 9161 0b3c 28a8 3b3e f1a3 08bd
000000e0: c00d e0bc fe51 d53c 0a13 14be 9faa 1fbe
000000f0: e176 2bbd 0a8b 81bd 4e52 a3bd 002d eaba
00000100: 2cc6 7f3d b599 1b3e a381 2cbe 26da ae3d
00000110: 4c5f 14be 03bc 32be 0064 a2bb 6aa9 23be
00000120: 7743 17be 4699 ec3d 4a7a 74bd 681b 0fbd
00000130: a782 0f3e ca25 febd a5cd 2f3e e22b 893d
00000140: f914 9dbd 5a7c 2bbe c7dd 2e3e ea95 d5bd
00000150: 78f7 27bd 4016 53bd 2bcb 90bd 80e6 d83b
00000160: 549a 293d e33a c6bd e0ca 5c3c abe2 abbd
00000170: a4de 2abe f85c 443d 5d74 b9bd 00d4 b7bc
00000180: 4a80 f3bd 5e05 edbd 8058 1c3d e179 2ebe
00000190: f20f 223e ccf8 4dbd 2dd0 47bd b34f d7bd
000001a0: ca1c 043e d400 5d3d 9e26 d8bd dfaf 02be
000001b0: e8f7 28be 8dc5 da3d e33a 1c3e 0e26 0b3e
000001c0: 3f81 27be c1f4 e1bd d0aa 10be e15c 9fbc
000001d0: 7e77 31be 3f8a 1f3e 570f 933c 1313 c5bc
000001e0: a1b0 22be 38f9 f7bd ca66 133d 5b87 9ebd
000001f0: 173c 21be 789e 20be c4d4 9f3d 6b41 33be
00000200: b961 b03d bf14 373d 3a06 cfbd faca 433d
00000210: 3335 15be 083b 3d3e 3383 013e 5310 ccbb
00000220: 6b6e 63bd 1bfb b83c e2b0 24bb 1d85 d53d
00000230: 46ef 733e e0b0 493e 53da 9dbd a759 1bbe
00000240: 9355 0bbe a145 253e 46f1 00be 6268 5cbd
00000250: 5a66 303e 7100 163e 6de4 afbc b82c 9f3d
00000260: 4f8f 103e e814 81bc 20bc 91bd 58bb 34be
00000270: 45f0 093e 32b9 343d 71a4 6dbc e88f 23bd
00000280: 5497 0dbe 0b04 2a3d 00ad ff3b 1a02 073e
00000290: 3fd1 cabc a40f 8e3d d66d 7e3d 9e32 0c3d
000002a0: 12b6 003d 5bcb 763d b4ac a43e 413d 40be
000002b0: 953a 003e 135f d9bb 651f 2b3e 74f9 24be
000002c0: efa5 373e 16c7 18be 8418 e73d 043a 29be
000002d0: 4c94 88bc 1964 6f3d 9cea 10be 2a56 c8bd
000002e0: 055b 963e caf2 71be d407 4cbd 55b4 a53d
000002f0: c7e9 6ebd b3c6 c4bd 0cf4 283d aefc e33d
00000300: d066 813c fc56 8cba 4b5d 19be 5893 843d
00000310: ab36 28bd 64d7 263e 2a09 de3d 731a 603d
00000320: 0f5c 26be be16 13be 3c98 f2bd 1c60 333d
00000330: c2bb 28be 10d1 12be c0e1 edbb c1e4 22be
00000340: b692 0f3d f30c 2f3e 481a c73c f096 593d
00000350: 3ee0 1d3e 06d2 e7bd 9325 803d c1cb 29be
00000360: 05c6 0cbe d082 23be 43bc 0b3e 266e c43d
00000370: f083 073e 52e6 63bd a2ca d13d 7919 043e
00000380: db6b 2f3e f23f 0c3e badb 0fbe 184e e73d
00000390: 1204 ea3b 0e55 51bd dfe2 d1bd d083 253d
000003a0: f86f d43c 89ed 08be c7e2 18be be88 403e
000003b0: 67f9 07be 3683 2cbc 7812 c73c bf5a 6abb
000003c0: a4ee a3bb 09cd 073e 1c2f 2abd d7ce 07be
000003d0: fa07 11be e6f3 913d 8e4d b73d b352 e43d
000003e0: 3b25 8dbd 406d af3d a1f7 373e 51a0 1c3e
000003f0: add1 f0bc aeb7 b6bd 6fda 2abe 3b59 093e
0.17290448 -0.3153584 -0.029432371 0.12535045 -0.04102972 0.24518743 0.14272065 0.050743043
0.046755288 -0.054093584 0.2428163 0.25600561 -0.05118426 -0.037011664 0.15840365 0.29767227
0.071595974 -0.21947372 0.2772697 -0.24910049 0.071400754 -0.09788383 -0.04517688 -0.15493603
0.27009875 -0.014765606 0.109675586 -0.07220627 -0.12365664 0.11369001 0.14470135 0.10303138
0.007579822 -0.06093265 0.13513659 -0.12077303 0.18559875 -0.07483071 -0.025424827 0.0031297277
-0.15844022 -0.13504738 -0.17636955 0.22245696 0.11675795 0.14007981 -0.03398733 0.09724373
0.044532754 -0.0370301 0.18363348 -0.012722693 0.049726307 0.008507148 0.18325865 -0.03335947
-0.027350307 0.026040073 -0.14460388 -0.1559243 -0.04186142 -0.06325348 -0.07974683 -0.0017866194
0.06244485 0.15195353 -0.16846327 0.08537702 -0.14489478 -0.17454533 -0.0049557686 -0.15982595
-0.1477183 0.11552672 -0.059686936 -0.034938246 0.14014684 -0.124095514 0.17168291 0.06697823
-0.07670016 -0.16746655 0.17076789 -0.104289845 -0.04100749 -0.05153489 -0.07070001 0.0066192746
0.041406944 -0.096792005 0.013476104 -0.08392843 -0.16686493 0.047940224 -0.09055398 -0.022439957
-0.118897036 -0.11573289 0.038170338 -0.1703868 0.15826395 -0.0502861 -0.048782516 -0.10513248
0.12901607 0.053955868 -0.10554241 -0.12762402 -0.16500819 0.10682211 0.15256839 0.13588735
-0.16357897 -0.11033011 -0.1412766 -0.019453468 -0.17330739 0.1558008 0.01795165 -0.024056947
-0.15887691 -0.121080816 0.0359867 -0.07740661 -0.15745579 -0.15685451 0.07804254 -0.17505424
0.08612389 0.04469752 -0.101086095 0.047800995 -0.14571075 0.1847955 0.12647705 -0.006227532
-0.055525225 0.022580674 -0.0025129844 0.1042578 0.23821744 0.19696379 -0.07707658 -0.15170918
-0.13606863 0.16139843 -0.12592039 -0.053810485 0.17226544 0.14648606 -0.021471227 0.07772201
0.14117168 -0.01575704 -0.0711596 -0.17649591 0.13470562 0.04412193 -0.014504538 -0.03993216
-0.13827258 0.041507762 0.0078026056 0.13184395 -0.02475798 0.06936577 0.062116466 0.03422796
0.031423636 0.06025253 0.32163012 -0.18773367 0.12522347 -0.006633648 0.16711195 -0.16110784
0.17934392 -0.14919695 0.11283973 -0.16526037 -0.016672276 0.05844507 -0.14151996 -0.097820595
0.29366317 -0.23627773 -0.049812153 0.08091036 -0.058328416 -0.09608211 0.041248366 0.11132179
0.015796095 -0.0010707076 -0.14976995 0.06473416 -0.04106776 0.16293103 0.10841592 0.054712724
-0.16246055 -0.14364144 -0.11845443 0.04379283 -0.16477874 -0.14337564 -0.0072595775 -0.15907575
0.035052024 0.17094783 0.024304524 0.05312246 0.15417573 -0.11319356 0.06257167 -0.16581632
-0.13747413 -0.1596787 0.13646035 0.09591322 0.13233924 -0.055639572 0.10243727 0.12900342
0.17130987 0.13696268 -0.14048663 0.11294192 0.0071415985 -0.051106505 -0.1024835 0.04040891
0.025932297 -0.13371862 -0.14930259 0.18802163 -0.13278733 -0.01052933 0.024300799 -0.0035759655
-0.0050028134 0.13261808 -0.041548833 -0.13262497 -0.14163199 0.07126598 0.08950339 0.11148586
-0.06891867 0.0856576 0.17965557 0.15295531 -0.029396856 -0.08921753 -0.16684888 0.13412945

2.bias f4 [64]
00000000: 6d0e a5bc 6d99 1cbe 8f8f 1bbe 3943 673c
00000010: 7596 cf3c 9798 93bb 3046 5c3b 1900 2d3e
00000020: bea9 d6bd e878 c53d fcc5 253d b5fd 04bd
00000030: abdd fcbd 4e00 ee3d 0677 1dbe 1369 79bd
00000040: 1dee 0fbe 97e4 963d 50b4 63bd 02dc ee3d
00000050: c9a6 d1bd 7b53 0c3d f322 e2bd 436a 03be
00000060: da06 bb3c 77e9 85bc 1a8a 35be 4c03 223e
00000070: 6cd2 163e 30d2 e33d 80de 20bd b91d 133e
00000080: d156 a53b 4f69 683d dcd1 c33d 9a1e 18be
00000090: a629 dd3d 09ae d13d 8b3e d33d 78c9 24be
000000a0: 2303 903c feac f73c b4ad 033e 64bb 473e
000000b0: 233f d63c 969f 7cbd 2883 24be 1f8c 1e3e
000000c0: 6aa6 093e b015 fbbd bcbb d83d ce67 2cbe
000000d0: 5cad 30bd 9179 fd3d e82a ca3c 6927 c0bd
000000e0: 10c2 373e 752a 93bd 449c 043e a95a 0bbe
000000f0: e0a6 da3b d3f3 e6bc 2222 d63c 404a 723b
-0.02014848 -0.15292902 -0.15191482 0.014115148 0.025340298 -0.004504274 0.003361117 0.16894569
-0.104815945 0.09642202 0.040472016 -0.032468516 -0.12346967 0.11621152 -0.15377435 -0.060891222
-0.14055677 0.07367819 -0.05559188 0.11663057 -0.1023689 0.0342593 -0.11041822 -0.12833504
0.022830416 -0.016346676 -0.17728463 0.1582157 0.14728707 0.111240745 -0.039274693 0.14366807
0.0050457497 0.056741055 0.09561512 -0.14855424 0.107989594 0.10238273 0.103146635 -0.16092479
0.01757962 0.030233856 0.12859231 0.19505078 0.026153153 -0.06167563 -0.16065657 0.1548314
0.13442388 -0.12259996 0.105826825 -0.16836473 -0.04313408 0.123767026 0.024678662 -0.09382517
0.17945123 -0.071858324 0.12950236 -0.13608803 0.006672725 -0.028192436 0.026139323 0.0036970526

4.weight f4 [128, 64]
00000000: a91e dabd 90f6 b2bd 3c73 2c3d 8eb6 ca3d
00000010: 41b3 f43b 51ae f43d 817b 393d e08f 64bd
00000020: 02ec 303c 50cf fa3d 1410 acbd daf4 bdbd
00000030: fce4 c5bd f2a4 d63b 6ef6 f1bd cc20 f13d
00000040: 3406 133d 905c dd3d 0de9 35bd a31c 6a3d
00000050: 16ba eebd 02d8 f7bd 725b 06bd fbce 963d
00000060: 2585 cd3d 9b8b 4fbd 5e49 ae3c 653b e6bc
00000070: 7b53 913a cd09 e4bd a811 ea3c 18ff 3fbd
00000080: 20e4 633d 55d3 69bd efb5 a0bd 7d8b 6e3b
00000090: c03a 88bc 5dcd b23b 8eee ebbc 037c dc3d
000000a0: ee32 e43d 5e11 b7bb 4fb9 ad3d 4ed9 cc3b
000000b0: 4c3c 1ebd 3044 2ebd 9830 543d 5877 80bc
000000c0: 00ea e63c decf 9ebd ca52 e7bd 1809 c1bc
000000d0: 783d e03c 2182 cc3d 40d6 04bd 8100 fe3d
000000e0: 2466 573d 350b f1bd 624e 3dbd 1339 52bd
000000f0: c8f1 6f3d e642 1abd f3e0 ba3c 60c0 dbbb
00000100: 6a9d 87bd 18a6 393d 280a 76bd 4609 583d
00000110: fe3c ffbd cdbb 0ebc 9443 bb3d 80ad 98bd
00000120: 9c27 8f3d 894a f13c 4452 7c3d 0921 ed3d
00000130: f3ad e73d abe7 bc3d ebc1 953d 06c6 4f3b
00000140: 5072 783c 9d8b d8bd a262 2fbd 91bf 24bd
00000150: a0d4 87bd 2019 e13d 8f99 d53d 9556 e53c
00000160: a0f8 67bd 2745 b93c 9798 f83d fd32 d9bd
00000170: 9e6d f7bd 6fab f83d 402b 52bb e16a 53bd
00000180: ddfd 52bd 35c8 9a3d 4b39 ac3d 1d18 13bd
00000190: 174c 2f3b c02c ae3c b437 8d3d d81c 04be
000001a0: e8b7 f5bd 829d a83d bd57 49bd c3a9 ec3a
000001b0: 553a 223b c2ee ef3d 128b c83d d07e 363c
000001c0: 2bbd c73d 703b f63d 5222 7b3c a63f eb3d
000001d0: 3093 b13d ba97 0e3e c798 693c 7531 cd3d
000001e0: 339a adbb dd18 cabd c37e 54bc 1800 19bd
000001f0: 2453 243d b731 0a3d 00ba a33c d0ae 5e3c
00000200: 1f4c fdbd 64d6 ae3d caa0 ec3d 7c77 8ebd
00000210: bb32 a3bc c490 a0bd 9088 af3c db3e 75bd
00000220: 7183 533c dd1c a0bc b076 babd e35d 0abd
00000230: b6b5 3d3d 9103 0b3d 3260 803c 21fa d13c
00000240: 1068 123d ee80 7ebd 6812 b3bd 8ab7 1a3d
00000250: 883b ce3c e64e 9d3d ae3b 19bd 4c8a 763d
00000260: 80a8 f73c 84f6 9139 8a56 fabd 0dab c5bd
00000270: d5b0 debd bfe8 d03d 16c0 e73d 6e89 38bc
00000280: 138d 22bb 837c 843d b158 d53c 1f71 d3bd
00000290: f8c8 063e e958 8e3b 55e9 95bc 20a2 123d
000002a0: d285 fcbd 842e 053d 8079 b6bc a453 133d
000002b0: a1f3 a33d 3443 7c3d e073 acbc e092 883d
000002c0: d8f3 65bb 1660 86bd 7c5a 133d 9c1e 8e3d
000002d0: 7c8c 96bd 9683 62bd 683d 003d caa1 ae3d
000002e0: 532a a53b 5865 efbd e3d8 27ba f16c 9b3d
000002f0: 3c32 98bd f81a bcbb 19d6 7cbb bc64 9dbd
00000300: 68f1 d03d 17e6 973d 0847 c0bd 5541 6dbd
00000310: 7a30 a8bd 23ca fabd ed72 8e3c 0dd8 b33d
00000320: 8916 3b3d 5ddf 83bc c87d c13d f302 80bb
00000330: cf17 d83d b6ac fe3c bdd3 0f3c c55b 0bbb
00000340: 7cf1 5e3d 2667 98bd 93e4 fa3d 78d4 d83c
00000350: 6810 333d 73ae 983d d600 9ebd ddde cc3c
00000360: 3be8 07be ac05 d83d f484 b03d 70bf f6bd
00000370: 310b f8bd 8d6a 9f3d 4a57 8c3d 4b6f dfbc
00000380: 86b8 13bd ede4 74bd 71a4 b23d 628c 94bd
00000390: 775f cc3d e5c4 01be 3eab a4bd f9ee d8bc
000003a0: 2e8f e33d 612c e8bc ab1d 013e 350c babd
000003b0: c3fe c2bd 10fd ddbd 4016 6a3b d059 aa3d
000003c0: 285f 07bd 7a15 dbbd e9aa c5bd 2079 48bd
000003d0: d291 cabd 28fc a5bd 0aae edbb 3001 6cbc
000003e0: f1b7 b2bd d8db d9bd 5d87 dd3d 0a03 993c
000003f0: 683f bc3d e556 a93d 4a76 d2bd 2041 df3b
-0.10650379 -0.08738434 0.042102084 0.09898101 0.007467658 0.11947311 0.045283798 -0.055801272
0.010798456 0.12246573 -0.08401504 -0.09275217 -0.09662816 0.0065504247 -0.11814581 0.11773834
0.035894588 0.108086705 -0.044411708 0.057156216 -0.11656587 -0.12101747 -0.032802053 0.07363697
0.10035161 -0.050670248 0.021275219 -0.028104493 0.0011087501 -0.11134682 0.028572872 -0.046874136
0.05563748 -0.057086308 -0.07847201 0.003639906 -0.016629577 0.00545661 -0.028800275 0.10765841
0.111425266 -0.005586787 0.084826104 0.0062514907 -0.038631722 -0.042545497 0.051804155 -0.015681908
0.028187752 -0.07754491 -0.11295088 -0.023563907 0.02737306 0.099857576 -0.032430887 0.1240244
0.052587643 -0.11769716 -0.04621733 -0.05132396 0.05858019 -0.037661456 0.022812342 -0.0067062825
-0.06621821 0.045324415 -0.06006828 0.05274322 -0.12462805 -0.008711767 0.09143749 -0.074549675
0.06989977 0.029454486 0.061601892 0.115785666 0.11312475 0.09223875 0.073123775 0.0031703725
0.015163973 -0.10573504 -0.042818673 -0.040221754 -0.06632352 0.1099112 0.104296796 0.027995387
-0.05663359 0.022615982 0.12138479 -0.10605428 -0.12081455 0.12142073 -0.0032069236 -0.0516156
-0.051511634 0.07557718 0.08409365 -0.035911668 0.0026748234 0.021261573 0.0689539 -0.12901628
-0.11997968 0.08233167 -0.04915594 0.0018055964 0.0024754007 0.11715461 0.097921506 0.011138633
0.09752878 0.120230556 0.015328007 0.11486749 0.08670652 0.13925067 0.014257616 0.10019199
-0.005297923 -0.098680235 -0.0129696755 -0.037353605 0.04011835 0.033738818 0.019986153 0.013591483
-0.123680346 0.085369855 0.115541056 -0.069563836 -0.019921651 -0.07840112 0.021427423 -0.059874397
0.012909756 -0.019545013 -0.09104669 -0.033780944 0.04631587 0.033938948 0.01567087 0.025631966
0.035743773 -0.062134676 -0.08743745 0.037772693 0.025174871 0.07681064 -0.03741043 0.060190484
0.030231714 0.00027840224 -0.12223537 -0.09651766 -0.10873572 0.10200643 0.11315934 -0.011263235
-0.0024803325 0.06469061 0.026043268 -0.103243105 0.13162601 0.004344095 -0.018299738 0.035799146
-0.12330212 0.032515064 -0.022274733 0.035968438 0.08005453 0.061587527 -0.021051347 0.06668639
-0.003508797 -0.06561296 0.035974964 0.06939432 -0.07351014 -0.05530127 0.03130856 0.085269526
0.005040446 -0.11689252 -0.0006402863 0.07589138 -0.074314564 -0.0057405196 -0.003857976 -0.07685229
0.102022946 0.07416933 -0.09388548 -0.057923634 -0.08212371 -0.12245586 0.017388785 0.08781443
0.045675788 -0.016097719 0.09447819 -0.0039066016 0.10551416 0.031088214 0.00877851 -0.0021264416
0.054429516 -0.07441549 0.12250628 0.0264685 0.043716818 0.074551485 -0.07715003 0.025008613
-0.13272183 0.10547957 0.08619109 -0.120482326 -0.121115096 0.07783995 0.068525866 -0.027274748
-0.036064647 -0.059788633 0.08722771 -0.072533384 0.09979146 -0.12672766 -0.08040474 -0.026481139
0.11111294 -0.028341474 0.12608974 -0.090843596 -0.09521248 -0.108392835 0.0035718828 0.083179116
-0.033049732 -0.10697456 -0.09651739 -0.04894364 -0.09891094 -0.081047356 -0.007253413 -0.01440458
-0.0872649 -0.10637635 0.10816834 0.018678207 0.09191781 0.08268527 -0.10276468 0.0068131834

4.bias f4 [128]
00000000: 9c4b 133d 9d1a 78bd 603f 783d 6c18 c93d
00000010: 7a57 a4bd 9300 aa3d 68d0 9dbd bebb 253b
00000020: ecb5 903d 577a 773d 8e86 a6bd 0456 d63d
00000030: 46e5 983c 365f 3c3c baf3 85bd 446f b03d
00000040: 6abf 9a3d a19b 9d3c 5fbc 113d de23 d2bd
00000050: f3db ebbc 6e3f ab3d ca91 c5bd 7314 97bd
00000060: 49f8 a13d 0ad0 fc3d 0716 fbbc 943d ccbd
00000070: f676 3f3d 86a2 9fbd 3471 a4bd b822 423c
00000080: 2452 2e3e 5766 d1bc 5761 953d 57d3 723d
00000090: 0c5a 0d3e b490 b0bc 24e4 f6bc 93ee d03d
000000a0: d8e7 113d 4937 b7bd a934 2d3e 9399 053d
000000b0: 81bf a63d f510 f13d 47df 17bd f782 fabb
000000c0: b29f c33a 6f45 b73d 862a a7bd 4f19 4bbd
000000d0: 0329 e2bd 02ee 893d 6d0a 863d f940 963d
000000e0: 146e 4fbd 6db5 fcbd e0c5 4abc 9c28 e73b
000000f0: ddd7 df3d 0642 b83d 8044 daba 53f1 933d
00000100: ee43 91bd 1f59 f13d 1af8 81bd 0178 553d
00000110: a6fb 6d3d 3a14 c53d 822d e0bd ca02 a6bd
00000120: a54b 1cbe 7853 84bc 3767 9a3d 86fe a4bd
00000130: 87e9 99bd 548e edbb eaf4 23bd 3c21 173e
00000140: abd8 ab3c 766c 08bd 16b4 033e d0c8 193e
00000150: 94e0 f4bc e10c 823d 3015 8b3c 201a 68bc
00000160: 51db fe3d f830 a03d e919 dd3d 17ca 493d
00000170: 1766 a6bc 452a 0f3e d480 8ebd ea3f 0dbd
00000180: b8e8 6d3d 8bda 7f3c 54f9 a1bd d878 d53d
00000190: cbf2 fcbd 43e3 12bd c22b 063e 1a71 bb3c
000001a0: f3d2 a03b a63a 26bd 1048 12bd dabb 7ebd
000001b0: 2f30 a5bd 8569 8ebd 1c19 d4bd a4f5 0ebd
000001c0: e51e 9c3d 82c9 bdbd 172f 4a3e a720 d63d
000001d0: 92bc eebc 83a2 833c 514d a3bd 0d5f 0a3e
000001e0: 9191 ee3c 98b7 80bc 4afa 6ebd c7f4 d03c
000001f0: 9e94 0bbe 48f5 d3bc 4c17 fd3d d962 74bd
0.03596078 -0.060572255 0.060607314 0.09819111 -0.08024497 0.08300891 -0.07705766 0.0025288905
0.07065949 0.060419407 -0.08131133 0.10465625 0.018664014 0.011497309 -0.06540628 0.08614972
0.075560406 0.019239249 0.035580035 -0.102607474 -0.028791403 0.08361708 -0.09646948 -0.07376947
0.07908685 0.12344368 -0.030650152 -0.099726826 0.04674431 -0.07794671 -0.08029404 0.011849098
0.17023522 -0.025561495 0.07293957 0.05928358 0.13803881 -0.021553375 -0.030138083 0.102017544
0.035621494 -0.08946092 0.1691462 0.032617163 0.08141995 0.117708124 -0.03707817 -0.0076450068
0.0014924912 0.0894879 -0.081624076 -0.049584683 -0.110429786 0.067348495 0.06544957 0.07336611
-0.050642088 -0.12339292 -0.012376279 0.0070544016 0.109298445 0.08996968 -0.0016652495 0.07223763
-0.07093035 0.117845766 -0.0634615 0.052116398 0.05810132 0.096229985 -0.1094618 -0.08106001
-0.15263231 -0.016153082 0.07539218 -0.08056359 -0.07515245 -0.007249633 -0.04002849 0.14758772
0.020977339 -0.03330656 0.12861666 0.1501801 -0.029892243 0.06350113 0.016977876 -0.014166385
0.12444175 0.0782184 0.107959576 0.049264994 -0.020312352 0.13980968 -0.06958166 -0.03448478
0.058083266 0.01561607 -0.07908884 0.1042344 -0.123509966 -0.035861265 0.1310263 0.02288108
0.0049079596 -0.040583275 -0.035713255 -0.062190868 -0.08065831 -0.0695372 -0.10356352 -0.03490223
0.0762308 -0.0926695 0.19744526 0.10455447 -0.029142652 0.016068703 -0.07973731 0.13512821
0.029122146 -0.015712544 -0.058344163 0.025507344 -0.13630912 -0.025873795 0.12357959 -0.05966458

6.weight f4 [1, 128]
00000000: e1e8 43bd e2f4 fdbd 3627 a43d 4656 e9bd
00000010: ceac 023d f17f ddbe ede6 803e c7b8 653d
00000020: 63bb 17bf d3ca f4be 19f5 46bd 9964 a93e
00000030: 6fbd 9ebe 9406 a1be 9ab8 41bd 1571 423e
00000040: f7c2 2bbe 3b7e 513e 17c9 3fbc b5e1 9d3d
00000050: 8d01 84bc faa9 8cbd da1e 6d3d ce41 b43e
00000060: 4e66 9ebe fe84 bfbe c80a 183e 2da3 bbbc
00000070: 3bb2 2ebc 148e 9e3c 884d 8bbe 08b9 f2bd
00000080: 7b80 7f3e df29 c93d 76ad 773d 780f b4be
00000090: afe5 4e3e 2d38 aebc 6e1e a5bc ec32 383d
000000a0: 100f ca3b da19 d4bd 3c97 0c3f 8320 73be
000000b0: 9b47 2cbe b8e8 bcbc f00f 013e 78bf dd3d
000000c0: ad91 ba3c ed8f 923d e74d 893d e0b0 4cbe
000000d0: 5adc 22bd 1ea0 323e 8056 b3bd df18 963e
000000e0: 2a14 8bbd 0bc1 023d a587 84bd 80a9 d0bb
000000f0: a6cf a7be bb51 ddbe ac47 c83c acbc 48be
00000100: b450 4d3e c8c6 9cbd b40e 9b3c f309 b2be
00000110: 4fc2 b33e 9011 303e 65c9 adbd 048b 82bc
00000120: 4b95 863d 5048 aebb 01a1 2ebe 2651 073d
00000130: 7546 4bbb 3212 523d 1a09 2dbe 8567 e93e
00000140: 4cb7 093e b3e8 6cbd e811 adbe cb3c ca3e
00000150: 8d07 cbbc 98c2 cc3d 74b5 babc c89e 5c3c
00000160: 9658 3e3e 0089 683e 89fc 9fbc 956c abbe
00000170: e82b 6c3e c1dd 813e e408 aebc 80f0 8f3e
00000180: c0bc 51be 0bd7 923e 68b7 623c 215e 713e
00000190: 8e49 72be 7f7c bf3e 48c5 1a3e 1acc 4e3d
000001a0: cbdc 32be 81b2 9b3d a662 a1bd dea9 70bc
000001b0: 69de 14bd 8c27 4ebd e0b1 3dbc 79c9 a23d
000001c0: 7527 343e 6037 d2bc e75c 8b3e 808f bc3e
000001d0: 0bb6 4fbc a655 79be bb23 55be 429e 6a3e
000001e0: 41d1 c93d 7c66 a83e e534 06be 0c88 f8be
000001f0: 42d4 663d 7d7e fa3d b525 8dbb 43bc d4be
-0.047829513 -0.12400223 0.080152914 -0.113934085 0.03190308 -0.43261674 0.25176182 0.05608442
-0.59270304 -0.47810993 -0.048573587 0.33084562 -0.310039 -0.3145033 -0.04729519 0.1898845
-0.16773592 0.2045831 -0.011705658 0.07709066 -0.01611402 -0.06868358 0.05789075 0.35206455
-0.30937427 -0.37406152 0.14847863 -0.022904957 -0.010662611 0.019354858 -0.2720759 -0.11851698
0.24951355 0.098224394 0.06046816 -0.35168052 0.20204805 -0.021267021 -0.020156112 0.044970438
0.0061663464 -0.10356493 0.54918265 -0.23742871 -0.1682419 -0.023060188 0.12603736 0.108275354
0.022774542 0.07156358 0.06704312 -0.19989347 -0.039760925 0.17443892 -0.08756733 0.2931585
-0.06790955 0.03192238 -0.06471185 -0.006367862 -0.3277561 -0.43226418 0.024448238 -0.19603223
0.20050317 -0.07655102 0.01892791 -0.34773216 0.35109183 0.171942 -0.084856786 -0.015935428
0.06571444 -0.005318679 -0.17053606 0.033036374 -0.0031017337 0.051286884 -0.16898003 0.45586792
0.13448828 -0.057839107 -0.33802724 0.39499506 -0.024783874 0.09998053 -0.022791602 0.013465591
0.1858848 0.22708511 -0.019529598 -0.3348128 0.23063624 0.25364497 -0.021244474 0.28113174
-0.20482159 0.2867969 0.013837673 0.23571064 -0.23660871 0.3739967 0.1511432 0.050487615
-0.17467038 0.07602406 -0.07880144 -0.014688937 -0.03634492 -0.050330684 -0.011578053 0.07948584
0.17593177 -0.02566117 0.27219316 0.36828232 -0.01267768 -0.24349079 -0.20814411 0.22911933
0.09854365 0.3289069 -0.13106115 -0.48541296 0.05635477 0.12231157 -0.0043074735 -0.41549882
